self.mof_global_encoder
MOFGlobalPropertyEncoder(
  (numeric_encoder): Sequential(
    (0): Linear(in_features=11, out_features=256, bias=True)
    (1): LayerNorm((256,), eps=1e-05, elementwise_affine=True)
    (2): ReLU()
    (3): Dropout(p=0.1, inplace=False)
    (4): Linear(in_features=256, out_features=128, bias=True)
  )
  (categorical_embeddings): ModuleDict(
    (All_Metals金属种类): Embedding(46, 23)
    (Has_OMS是否有缺陷): Embedding(2, 1)
    (Open_Metal_Sites缺陷位点): Embedding(42, 21)
    (Topologies拓扑): Embedding(80, 40)
    (Terminal_Ligands封端配体): Embedding(54, 27)
    (Ligand_1_structures): Embedding(107, 50)
    (Ligand_1_groups): Embedding(129, 50)
    (Ligand_2_structures): Embedding(107, 50)
    (Ligand_2_groups): Embedding(129, 50)
    (Ligand_3_structures): Embedding(107, 50)
    (Ligand_3_groups): Embedding(129, 50)
  )
  (categorical_encoder): Sequential(
    (0): Linear(in_features=412, out_features=256, bias=True)
    (1): LayerNorm((256,), eps=1e-05, elementwise_affine=True)
    (2): ReLU()
    (3): Dropout(p=0.1, inplace=False)
    (4): Linear(in_features=256, out_features=128, bias=True)
  )
  (smiles_embedding): Embedding(66, 64)
  (smiles_encoder): LSTM(64, 64, batch_first=True, bidirectional=True)
  (smiles_processors): ModuleDict(
    (Metals金属节点): Sequential(
      (0): Linear(in_features=128, out_features=64, bias=True)
      (1): ReLU()
      (2): Dropout(p=0.1, inplace=False)
    )
    (Ligand_1): Sequential(
      (0): Linear(in_features=128, out_features=64, bias=True)
      (1): ReLU()
      (2): Dropout(p=0.1, inplace=False)
    )
    (Ligand_2): Sequential(
      (0): Linear(in_features=128, out_features=64, bias=True)
      (1): ReLU()
      (2): Dropout(p=0.1, inplace=False)
    )
    (Ligand_3): Sequential(
      (0): Linear(in_features=128, out_features=64, bias=True)
      (1): ReLU()
      (2): Dropout(p=0.1, inplace=False)
    )
  )
  (ligand_encoder): Sequential(
    (0): Linear(in_features=495, out_features=256, bias=True)
    (1): LayerNorm((256,), eps=1e-05, elementwise_affine=True)
    (2): ReLU()
    (3): Dropout(p=0.1, inplace=False)
    (4): Linear(in_features=256, out_features=128, bias=True)
  )
  (final_encoder): Sequential(
    (0): Linear(in_features=640, out_features=256, bias=True)
    (1): LayerNorm((256,), eps=1e-05, elementwise_affine=True)
    (2): ReLU()
    (3): Dropout(p=0.2, inplace=False)
    (4): Linear(in_features=256, out_features=256, bias=True)
    (5): ReLU()
    (6): Dropout(p=0.1, inplace=False)
    (7): Linear(in_features=256, out_features=128, bias=True)
  )
)
